…
Qwen2ForCausalLM has generative capabilities, as `prepare_inputs_for_generation` is explicitly defined. However, it doesn't directly inherit from `GenerationMixin`. From ðŸ‘‰v4.50ðŸ‘ˆ onwards, `PreTrainedModel` will NOT inherit from `GenerationMixin`, and this model will lose the ability to call `generate` and other related functions.
  - If you're using `trust_remote_code=True`, you can get rid of this warning by loading the model with an auto class. See https://huggingface.co/docs/transformers/en/model_doc/auto#auto-classes
  - If you are the owner of the model architecture code, please modify your model class such that it inherits from `GenerationMixin` (after `PreTrainedModel`, otherwise you'll get an exception).
  - If you are not the owner of the model architecture class, please contact the model code owner to update it.
Qwen2ForCausalLM(
  (model): Qwen2Model(
    (embed_tokens): Embedding(151936, 1024)
    (layers): ModuleList(
      (0-27): 28 x Qwen2DecoderLayer(
        (self_attn): Qwen2Attention(
          (q_proj): Linear(in_features=1024, out_features=2048, bias=False)
          (k_proj): Linear(in_features=1024, out_features=1024, bias=False)
          (v_proj): Linear(in_features=1024, out_features=1024, bias=False)
          (o_proj): Linear(in_features=2048, out_features=1024, bias=False)
          (q_norm): Qwen2RMSNorm((128,), eps=1e-06)
          (k_norm): Qwen2RMSNorm((128,), eps=1e-06)
          (rotary_emb): Qwen2RotaryEmbedding()
        )
        (mlp): Qwen2MLP(
          (gate_proj): Linear(in_features=1024, out_features=3072, bias=False)
          (up_proj): Linear(in_features=1024, out_features=3072, bias=False)
          (down_proj): Linear(in_features=3072, out_features=1024, bias=False)
          (act_fn): SiLU()
        )
        (input_layernorm): Qwen2RMSNorm((1024,), eps=1e-06)
        (post_attention_layernorm): Qwen2RMSNorm((1024,), eps=1e-06)
      )
    )
    (norm): Qwen2RMSNorm((1024,), eps=1e-06)
  )
  (lm_head): Linear(in_features=1024, out_features=151936, bias=False)
)
2025-07-07 09:34:37,536 - resq - INFO - Model PTQ completed Qwen2ForCausalLM(
  (model): Qwen2Model(
    (embed_tokens): Embedding(151936, 1024)
    (layers): ModuleList(
      (0-27): 28 x Qwen2DecoderLayer(
        (self_attn): Qwen2Attention(
          (q_proj): Linear(in_features=1024, out_features=2048, bias=False)
          (k_proj): Linear(in_features=1024, out_features=1024, bias=False)
          (v_proj): Linear(in_features=1024, out_features=1024, bias=False)
          (o_proj): Linear(in_features=2048, out_features=1024, bias=False)
          (q_norm): Qwen2RMSNorm((128,), eps=1e-06)
          (k_norm): Qwen2RMSNorm((128,), eps=1e-06)
          (rotary_emb): Qwen2RotaryEmbedding()
        )
        (mlp): Qwen2MLP(
          (gate_proj): Linear(in_features=1024, out_features=3072, bias=False)
          (up_proj): Linear(in_features=1024, out_features=3072, bias=False)
          (down_proj): Linear(in_features=3072, out_features=1024, bias=False)
          (act_fn): SiLU()
        )
        (input_layernorm): Qwen2RMSNorm((1024,), eps=1e-06)
        (post_attention_layernorm): Qwen2RMSNorm((1024,), eps=1e-06)
      )
    )
    (norm): Qwen2RMSNorm((1024,), eps=1e-06)
  )
  (lm_head): Linear(in_features=1024, out_features=151936, bias=False)
)
2025-07-07 09:34:37,536 - resq - INFO - Start to load tokenizer...
2025-07-07 09:34:37,901 - resq - INFO - Complete tokenizer loading...
get_wikitext2
Token indices sequence length is longer than the specified maximum sequence length for this model (299078 > 2048). Running this sequence through the model will result in indexing errors
(Eval) La
…
